MINST/mnist_model.pth (torch, 439319 bytes, 6 tensors)

fc1.weight f4 [128, 784]
0	0x3c19832c	0.009369653
1	0xbc3e6138	-0.011619858
2	0x3d06b20b	0.03288464
3	0xbcb63631	-0.022242637
4	0xbd01710a	-0.031601943
5	0x3c8d700f	0.017265348
6	0xbd045e54	-0.03231652
7	0x3cfff411	0.03124431
8	0x3cf7ee9f	0.03026515
9	0x3b9edf59	0.0048484025
10	0xbcf420bf	-0.02980077
11	0x3cf55627	0.029948307
12	0x3ce9fff1	0.028564425
13	0x3ceda1c7	0.029007806
14	0xbc69a448	-0.014260359
15	0x3ccf91d5	0.025338093
16	0xbd00d11d	-0.031449426
17	0x3cc3fc2f	0.023923961
18	0xbd075d71	-0.033048097
19	0x3c794d80	0.015216231
20	0x3c2f6f7c	0.010707732
21	0x3c4462d4	0.011986453
22	0xbd0b5aab	-0.034022015
23	0xbcca6aa7	-0.024709059
24	0x3cc8af6b	0.024497708
25	0x3b1c4822	0.0023846705
26	0xbd0b013a	-0.033936717
27	0xbd010afe	-0.031504624
28	0x3c4adbc0	0.012381494
29	0x3cca4b09	0.024693983
30	0x3bd24b19	0.0064176437
31	0x3c5bc678	0.013414018
32	0x3c9ef1f5	0.019402483
33	0xbbfabb1a	-0.007651699
34	0x3c3bb87c	0.011457559
35	0xbcc0e889	-0.023548381
36	0xbc83ef1c	-0.016105227
37	0x3c2eef94	0.010677237
38	0x3c2ea920	0.01066044
39	0xbd0674cd	-0.032826234
40	0x3c8f14da	0.017465997
41	0x3c30849b	0.010773803
42	0x3c257ec4	0.010101024
43	0x3cd78d20	0.02631241
44	0xb976b0a7	-0.00023526196
45	0xba38e4c8	-0.0007053134
46	0x3ca7e12a	0.020493109
47	0xbbf752b1	-0.0075476994
48	0xbb329b38	-0.0027253162
49	0x3ce32707	0.02772857
50	0x3caf57a9	0.021404104
51	0x3c93d9b4	0.018048145
52	0x3c38c65c	0.011277761
53	0xbcf106d7	-0.029422207
54	0x3c756a1c	0.014978912
55	0xba53ac8c	-0.0008074723
56	0x3ce0aaff	0.027425287
57	0xbc1d2c22	-0.009593042
58	0xbc9737a4	-0.018459149
59	0xbb8ab666	-0.0042331694
60	0xb82a712b	-4.0636554e-05
61	0xbcb80b30	-0.022466272
62	0xbbea1726	-0.007143873
63	0x3c698f72	0.014255391
64	0xbc05251c	-0.008126523
65	0xbcaef435	-0.021356681
66	0xbd11930f	-0.035540637
67	0xbc8b2d18	-0.016989276
68	0x3ac5e7bb	0.0015098968
69	0xbcaacddc	-0.020850115
70	0x3cee6bd0	0.029104143
71	0xbd0f9c7c	-0.035061345
72	0xbd0a40da	-0.033753254
73	0xbaa23b2c	-0.0012377254
74	0x3d05add5	0.032636482
75	0xbc838401	-0.016054155
76	0xbd11c72b	-0.035590332
77	0xbcb4d604	-0.022074707
78	0xbc31033c	-0.010803994
79	0xba93ff87	-0.0011291363
80	0x3aeea155	0.001820604
81	0x3ca757e6	0.020427655
82	0xbce8bf41	-0.02841151
83	0xbd06848a	-0.032841243
84	0x3c9d7dcd	0.019225026
85	0xbcc4dc3f	-0.024030803
86	0x3c4b3c94	0.01240458
87	0xbcd8b849	-0.026455062
88	0xbcd39a4d	-0.025830412
89	0xbd0185cb	-0.031621736
90	0x3c680c6b	0.014163117
91	0xbce823b6	-0.02833734
92	0xbd0cad0e	-0.034344725
93	0x3bd28669	0.0064247143
94	0xbc5556d7	-0.0130211925
95	0xbc93796c	-0.018002234
96	0xbc37a432	-0.011208581
97	0x3ca0573f	0.019572852
98	0xbcfb4e76	-0.030677062
99	0xbcc1e512	-0.0236688
100	0xbcb83ec2	-0.022490863
101	0x3cde85f8	0.02716349
102	0xbc6d44ef	-0.014481767
103	0x3be192a4	0.006883936
104	0x3c8dab20	0.017293513
105	0x3c890c39	0.016729461
106	0x3b5475d1	0.0032418857
107	0x3c4af385	0.012387161
108	0xbbd8c42d	-0.006615183
109	0xbbe1bc81	-0.0068889265
110	0x3b16bc8a	0.0023000562
111	0xbb77855a	-0.0037768693
112	0x3caa61e9	0.02079864
113	0x3b6d2ee8	0.0036191288
114	0xbc5093a1	-0.01273051
115	0xbceff099	-0.02928953
116	0x3d0b2519	0.033970926
117	0xbc7967ae	-0.015222473
118	0x3cdda932	0.027058218
119	0x3b9a26ee	0.004704348
120	0xbc60330d	-0.013684046
121	0xbc93eeda	-0.01805823
122	0x3c8fc86b	0.017551621
123	0x3caccdf4	0.0210943
124	0x37bf7b64	2.2826433e-05
125	0xbc3c07c0	-0.011476457
126	0x3c9a4705	0.018832693
127	0xbc959efe	-0.01826429
128	0xbb69e600	-0.003569007
129	0x3b92aaea	0.004475941
130	0xbd03ff11	-0.032225672
131	0x3c537cbe	0.012908159
132	0xbcfe9a8d	-0.031079555
133	0x3cd992a9	0.02655919
134	0xbbef4e79	-0.007303056
135	0xbc8ce17d	-0.017197365
136	0xbcf2eaf6	-0.029653054
137	0x3c5dc63d	0.013536033
138	0xbb602b00	-0.0034205317
139	0x3ab64cba	0.0013908364
140	0xbcbac21f	-0.022797642
141	0x3d0b8897	0.03406581
142	0xbca38caf	-0.019964544
143	0xbca364eb	-0.019945582
144	0x3c6bd0d2	0.014393048
145	0xbc9fbf51	-0.019500406
146	0x3ccd7c87	0.025083793
147	0xbc40c272	-0.011765109
148	0x3cb1262f	0.021624653
149	0xbc480bbb	-0.012209828
150	0xbbdc002f	-0.006713889
151	0x3c17970b	0.00925232
152	0xbb7d78c1	-0.0038676711
153	0xbcb9e80a	-0.022693653
154	0x3c021451	0.007939414
155	0xbb0470ac	-0.002020876
156	0xba3ea490	-0.00072724465
157	0x3d0fab06	0.03507521
158	0xbb954f92	-0.0045566047
159	0x3cce9bb5	0.025220731
160	0xbce88c56	-0.02838723
161	0x3c8fa30d	0.017533803
162	0xbb8ee99b	-0.004361344
163	0x3c9551d7	0.0182275
164	0x3d0ef49e	0.034901254
165	0xbc8cea2d	-0.017201507
166	0xbc904575	-0.017611245
167	0xbcc15f0d	-0.023604894
168	0xbce64381	-0.02810836
169	0x3cd9b930	0.026577562
170	0xbc67c8a9	-0.014146962
171	0x3c57a5cf	0.01316209
172	0xbcad55c5	-0.021159062
173	0xbbd833f3	-0.0065979897
174	0xbaa13a19	-0.001230064
175	0x3b8f5fde	0.004375442
176	0x3c5a3daf	0.013320371
177	0xbca6125d	-0.020272428
178	0x3c0b2322	0.008492263
179	0xbcf2622d	-0.02958783
180	0xbcc3fd77	-0.023924572
181	0x3c3f226a	0.01166592
182	0x3c96413b	0.018341651
183	0xbc325327	-0.010884083
184	0x3c84c94b	0.016209265
185	0xbbf775ec	-0.007551899
186	0xbc8a5f42	-0.016891126
187	0xbbe7abbf	-0.0070700343
188	0x3b81af06	0.003957632
189	0xbd1143dc	-0.035465106
190	0xbb7c4c43	-0.0038497604
191	0xbca85043	-0.020546084
192	0xbcbd9152	-0.023140583
193	0x3c574f5f	0.013141482
194	0x3cecb08a	0.028892774
195	0xbcdf7ad0	-0.027280241
196	0x3cb64836	0.02225123
197	0x3ba25b09	0.0049547
198	0xbbcaf842	-0.0061941454
199	0x3d0d6bc2	0.034526594
200	0x3b8a3252	0.0042174244
201	0x3c1f0e66	0.009708023
202	0xbc400f65	-0.01172242
203	0x3ca64406	0.020296108
204	0x3bf8edef	0.0075967233
205	0x3cd65d68	0.026167586
206	0xbc4ccda1	-0.012500198
207	0x3c50bfb2	0.012741016
208	0x3c6baec0	0.014384925
209	0xbcfaae31	-0.030600639
210	0x3bc1402a	0.0058975415
211	0x3c55a750	0.013040379
212	0xbcc85ec3	-0.024459248
213	0x3c446b9a	0.011988545
214	0x3cf1c57c	0.029513113
215	0xbc224c06	-0.009905821
216	0x3a8131cb	0.0009856758
217	0xbc9f6729	-0.01945837
218	0x3c474ca4	0.012164269
219	0xbc8bab93	-0.017049586
220	0xbc50cdda	-0.012744391
221	0x3d081e02	0.033231743
222	0x3ca221d1	0.019791516
223	0xbd01d788	-0.031699687
224	0xbc9e758f	-0.019343166
225	0x3c93f7a9	0.01806243
226	0x3c883207	0.016625417
227	0xbc0e8c2e	-0.008700414
228	0x3caee553	0.021349585
229	0xbc77db8e	-0.0151280295
230	0x3d05bcc4	0.032650724
231	0xbca2f557	-0.019892378
232	0xbc330720	-0.010926992
233	0xbcbbb288	-0.022912279
234	0xbc8537b5	-0.016261915
235	0xbd0f67fe	-0.035011284
236	0xbcabf903	-0.020992761
237	0x3cb27dbe	0.021788474
238	0xbb6a3e67	-0.003574276
239	0xbcac5987	-0.021038784
240	0xbc23b5ce	-0.009992076
241	0xbcb8c1d8	-0.02255337
242	0xbcc3b87d	-0.023891682
243	0x3cf95352	0.030435238
244	0x3d02c16d	0.031922746
245	0xbbec48e2	-0.0072108367
246	0x3c9a4946	0.018833768
247	0x3c8948d0	0.016758353
248	0xbc7ece76	-0.015552154
249	0x3cfa2fd4	0.030540384
250	0xbc789e8a	-0.015174517
251	0xba954f08	-0.0011391351
252	0xbcfeed83	-0.031119114
253	0x3ca056c7	0.019572629
254	0xbd0fb188	-0.035081416
255	0xbc274084	-0.010208253

fc1.bias f4 [128]
0	0xbd0a4b4a	-0.033763207
1	0xbcbc4c30	-0.022985548
2	0x3cd26746	0.02568401
3	0xbc86a6c5	-0.016436944
4	0xbcfc40b9	-0.03079258
5	0x3b090ff4	0.002091405
6	0x3d12e16c	0.03585951
7	0x3aa8531f	0.0012842155
8	0xbc280de5	-0.010257219
9	0xbcdec43f	-0.027193187
10	0x3c60a15d	0.013710347
11	0x3caf6cb7	0.021414144
12	0x3becdc38	0.0072284006
13	0x3d1466a3	0.036230695
14	0xbb64f6eb	-0.0034937214
15	0x3cd7c7d7	0.026340408
16	0x3ce8a27d	0.028397793
17	0x3ca0ee70	0.019644946
18	0x3ce34c07	0.027746214
19	0xbc84a551	-0.01619211
20	0xbced5b0d	-0.02897408
21	0xbcebfa03	-0.028805738
22	0x3ce21164	0.027596183
23	0xbccc6774	-0.024951674
24	0x3d00a701	0.031409267
25	0xbc910d6c	-0.017706595
26	0xbaa60124	-0.0012665135
27	0xbc8e953a	-0.017405141
28	0x3c878d7d	0.016546959
29	0xbcc9f519	-0.024653004
30	0x3ccff92f	0.025387375
31	0x3d099cd8	0.033596843
32	0xbc3088c3	-0.010774794
33	0xbb95c9db	-0.004571182
34	0xbce04833	-0.027378177
35	0x3a8cd620	0.0010744967
36	0xbd034f09	-0.032057796
37	0x3cc39b8c	0.023877881
38	0x3bac286f	0.0052538435
39	0x3af8b57f	0.0018974988
40	0x3b383238	0.0028106105
41	0x3c3bc91f	0.011461525
42	0x39901300	0.00027479976
43	0xbcc8cf13	-0.024512803
44	0x3d13a682	0.036047466
45	0x3d208a97	0.03919467
46	0xbcfb85fb	-0.030703535
47	0xbcacc8a9	-0.021091776
48	0x3ca02d86	0.019552957
49	0xbaec8819	-0.0018045931
50	0xbd0c5e3b	-0.034269553
51	0x3bc96124	0.0061456133
52	0x3c914122	0.017731253
53	0x3d2b64a1	0.041844014
54	0x3c0a3549	0.008435556
55	0x3cc82c71	0.024435254
56	0x3c0085d5	0.007844408
57	0x3b94d759	0.004542273
58	0x3cb92a35	0.022603134
59	0x3d08ab8f	0.033366736
60	0xbc24574a	-0.010030577
61	0xbcea5132	-0.02860317
62	0xbc13cb25	-0.009020601
63	0xbd07bfd1	-0.033141915
64	0x3b8b19bd	0.0042450116
65	0xbcaa9e24	-0.02082736
66	0xbc295be3	-0.010336849
67	0x3c126868	0.008936025
68	0x3c41e3f0	0.01183413
69	0x3c52512f	0.0128367385
70	0xbb34c8dd	-0.0027585544
71	0x3befbc74	0.0073161665
72	0xbb01bf0c	-0.001979771
73	0x3cdbaad6	0.02681486
74	0x3d0ae307	0.033907916
75	0x3c2f0185	0.010681515
76	0x3a8d5cac	0.0010785065
77	0x3c597518	0.013272546
78	0xbc2fb36c	-0.01072393
79	0xbafd9970	-0.0019348096
80	0xba214ad5	-0.00061528134
81	0x3c31753e	0.010831175
82	0x3c860216	0.016358417
83	0xbcba6da6	-0.022757363
84	0x3bb925e3	0.0056502684
85	0xbc403bbb	-0.011732991
86	0x3bf7f7f1	0.0075673987
87	0xbcd29e71	-0.025710316
88	0xbbc51183	-0.0060140505
89	0xbc19aca2	-0.009379538
90	0xbcce03d7	-0.025148315
91	0xbc790604	-0.015199188
92	0x3aca158e	0.0015417801
93	0xbcdba80f	-0.026813535
94	0xbd0593ad	-0.032611538
95	0x3c91ddc5	0.017805943
96	0x3ce66103	0.02812243
97	0x3c94d94d	0.018170023
98	0x3c57ed60	0.013179153
99	0xbac59b33	-0.001507616
100	0x3d096aa0	0.03354895
101	0x3c74f6c5	0.014951413
102	0x3cf2824c	0.029603146
103	0x3d17a2fc	0.03702067
104	0x3c50b6ba	0.012738878
105	0x3d0f7812	0.035026617
106	0x3c22d888	0.00993932
107	0x3d02c157	0.031922664
108	0xbbb18cc7	-0.0054183933
109	0xbc8c8e68	-0.017157748
110	0x3cf59073	0.029976105
111	0x3c3b7b31	0.011442945
112	0x3d16c1a4	0.036805764
113	0x3c9d6fc4	0.019218333
114	0x3c761de5	0.015021776
115	0x3cde082c	0.027103506
116	0xbc2bf732	-0.010495948
117	0xbcec7191	-0.028862746
118	0xbcf66751	-0.030078562
119	0xbd018918	-0.031624883
120	0x3ceafdaf	0.028685419
121	0x3c4e2ca4	0.012583885
122	0x3d1ce276	0.038301907
123	0x3c653132	0.01398878
124	0xbc2b74ec	-0.010464888
125	0xba578a8a	-0.0008222243
126	0xbc59304e	-0.013256146
127	0x3c7c4b18	0.015398763

fc2.weight f4 [64, 128]
0	0xbc5f869d	-0.013642934
1	0xbdaacca2	-0.08339812
2	0x3c38d280	0.011280656
3	0xbb82fd64	-0.0039974917
4	0xbd8714fa	-0.06595798
5	0xbd8ad421	-0.06778742
6	0xb8d14d94	-9.980347e-05
7	0x3c041324	0.008061204
8	0xbdd9c347	-0.10632949
9	0xbd02c453	-0.03192551
10	0x3da13fde	0.0787351
11	0x3c02542a	0.007954637
12	0xbc82657a	-0.015917528
13	0x3c3e98ab	0.011633079
14	0xbd0ec696	-0.034857355
15	0xbe1d4b94	-0.15360862
16	0x3d257a21	0.040399674
17	0x3da9faae	0.082997665
18	0x3d8e92dd	0.06961606
19	0xbdaffe71	-0.08593453
20	0xbd330fb1	-0.043716136
21	0x3d429c99	0.047512624
22	0xbb7e0636	-0.0038761026
23	0xbc174558	-0.009232841
24	0x3e0fcd5d	0.14043184
25	0x3d44a8b7	0.04801246
26	0x3cf61a76	0.030041914
27	0x3d9ee133	0.07757797
28	0x3dfb21a2	0.12262274
29	0x3c35c5a7	0.011094487
30	0x3bf32b80	0.007420957
31	0x3e161527	0.14656506
32	0x3d220c74	0.039562657
33	0xbe2e4702	-0.17019275
34	0xbdaa723e	-0.08322571
35	0xbd86d432	-0.06583442
36	0x3cb38674	0.021914698
37	0x3bab22cb	0.0052226535
38	0xbdb75fcb	-0.08953818
39	0xbd5e91be	-0.05433821
40	0x3e00655a	0.12538663
41	0xbcec2b0c	-0.02882912
42	0x3d326dda	0.043561794
43	0x3d5fe493	0.054661345
44	0x3d902ab1	0.07039393
45	0x3c5718c8	0.013128467
46	0xbc9333f8	-0.017969117
47	0xbcf3aa84	-0.029744394
48	0x3d94307b	0.072358094
49	0xbdb4d7e6	-0.08830242
50	0x3a21f0eb	0.0006177562
51	0x3d3f888b	0.046761077
52	0xbd0858b7	-0.03328773
53	0x3d6fc038	0.058532923
54	0xbd983418	-0.07431811
55	0x3d8a6d73	0.06759157
56	0xbd95715e	-0.07297014
57	0xbd27cc4d	-0.04096632
58	0x3b30719a	0.002692318
59	0x3c9e15bc	0.019297473
60	0xbd84a157	-0.06476086
61	0x3b66da78	0.0035225432
62	0xbd40834b	-0.04700021
63	0xbcbcccd7	-0.023046894
64	0x3de7b094	0.113129765
65	0xbda6cd71	-0.081446536
66	0xbcc0e258	-0.02354543
67	0xbcf7cac7	-0.030248059
68	0xbd3dadd6	-0.04630836
69	0x3d8ece49	0.069729395
70	0xbd0744fb	-0.03302477
71	0x3d30264a	0.043005265
72	0xbcefa459	-0.029253172
73	0xbd1067f2	-0.03525538
74	0xbda83933	-0.08214035
75	0x3d8668fe	0.065629944
76	0x3d83575b	0.06413146
77	0x3d78ac0c	0.06071095
78	0xbd2ae4c2	-0.041722067
79	0x3cf32ce0	0.029684484
80	0x3d21412d	0.039368797
81	0xbdff1b25	-0.12456349
82	0x3d9fa2b3	0.07794704
83	0xbdbb729f	-0.091527216
84	0x3da7fa82	0.082020774
85	0x3cc28199	0.023743438
86	0xbd80b696	-0.062848255
87	0x3d88f6bc	0.06687686
88	0x3df42f4c	0.11923084
89	0x3dea8083	0.11450293
90	0x3d4ba1db	0.049714904
91	0x3dd3e87c	0.10347077
92	0x3da611ee	0.081088886
93	0x3d84a8f9	0.064775415
94	0x3ba404fc	0.005005477
95	0xbd3d8720	-0.046271443
96	0xbd1ae5af	-0.0378167
97	0x3d6c1f8c	0.057647273
98	0xbce96a6a	-0.028493125
99	0x3d9f0835	0.07765237
100	0x3dbc5e2d	0.0919765
101	0x3d0eb88c	0.034843966
102	0xbce94587	-0.028475536
103	0x3ce814d3	0.028330242
104	0x3e1ea608	0.15493023
105	0xbdbf5646	-0.09342627
106	0xbb56dda2	-0.0032785912
107	0x3d17b97c	0.037042126
108	0x3e01cfe2	0.12676957
109	0x3d83648c	0.06415662
110	0x3da3a33b	0.07990118
111	0xbd7c8a53	-0.061655354
112	0x3d19b42c	0.03752534
113	0x3e1e1928	0.15439284
114	0xbc7c4d8b	-0.015399347
115	0xba020953	-0.0004960496
116	0x3db2f048	0.08737236
117	0x3db08e43	0.08620884
118	0x3ce6caf9	0.028172957
119	0xbc699555	-0.014256795
120	0x3c6fc4ef	0.014634355
121	0xbdabc34d	-0.0838686
122	0x3e0425ed	0.12905093
123	0xbde4deab	-0.11175283
124	0xbb9f1a2a	-0.004855414
125	0x3d9ea18f	0.077456586
126	0x3d310d6f	0.043225702
127	0x3d0f9247	0.03505161
128	0x3c9dbd21	0.019255223
129	0xbd8105d3	-0.06299939
130	0x3d14427f	0.036196228
131	0x3c43b60f	0.011945262
132	0xbd9b2792	-0.07575907
133	0x3daf9588	0.08573443
134	0xbd8dba8b	-0.06920346
135	0x3d6b4d19	0.057446573
136	0x3d16b220	0.036790967
137	0x3dc01545	0.09379057
138	0x3d74f945	0.059808034
139	0xbd058779	-0.0325999
140	0xbd2f8222	-0.042848714
141	0xbd8150f3	-0.06314268
142	0xbd921b83	-0.07134154
143	0x3bceb503	0.0063081994
144	0xbaef3159	-0.001824896
145	0xbd6b5189	-0.057450805
146	0xbd01dce9	-0.031704817
147	0x3dcf78c4	0.10130456
148	0x3dc23c7c	0.09484193
149	0xbdc53343	-0.09628918
150	0xbdc5f694	-0.09666172
151	0x3d320429	0.043461
152	0xbd9ae552	-0.07563271
153	0x3d08a11e	0.03335678
154	0xbd8276a8	-0.06370288
155	0xbdab9f85	-0.08380035
156	0xbc7fc2df	-0.015610426
157	0xbd12d9f5	-0.03585239
158	0x3dbc524c	0.091953844
159	0x3c9bb625	0.019007752
160	0xbd431fe4	-0.047637835
161	0x3d9cb23f	0.07651185
162	0x3dac01bf	0.083987705
163	0x3dbb5736	0.091474935
164	0xbca613e8	-0.020273164
165	0xbdc17430	-0.09445989
166	0x3d66bc2c	0.0563318
167	0x3da328a5	0.07966737
168	0xbd509a0c	-0.05092816
169	0xbc92b99a	-0.017910767
170	0x3bf48bf0	0.007462971
171	0x3c80ee92	0.01573876
172	0x3d5e5284	0.05427791
173	0xbd7da96f	-0.061929163
174	0x3dc92c9a	0.0982296
175	0x3d0df704	0.0346594
176	0x3d885ce0	0.066583395
177	0xbd32aa5d	-0.043619502
178	0xbdabd2f5	-0.08389846
179	0x3d0e9c63	0.03481711
180	0xbb31fd76	-0.002715913
181	0x3cffd921	0.031231465
182	0x3ce15e3d	0.027510757
183	0x3d61e877	0.055153336
184	0x3cdb5e55	0.02677838
185	0xbd4e8290	-0.050417483
186	0xbd5b5c81	-0.053555015
187	0x3dcb1040	0.09915209
188	0x3d2122ab	0.039339703
189	0x3c534f85	0.012897377
190	0x3de06579	0.109568544
191	0xbd39c779	-0.045356248
192	0x3d1230b5	0.035690982
193	0x3db7dd4f	0.08977758
194	0x3d866974	0.06563082
195	0xbd0e6ca5	-0.03477158
196	0xbd69bc2b	-0.057064217
197	0xbdad703b	-0.08468672
198	0x3dafcef6	0.085843965
199	0xbdc10eb1	-0.0942663
200	0x3cbab49a	0.022791196
201	0xbcaa7410	-0.020807296
202	0xbd5ce5e4	-0.05393018
203	0xbda5af50	-0.08090079
204	0xbceb0c1c	-0.028692298
205	0xbdbfd8af	-0.09367501
206	0xbd23312c	-0.039841816
207	0xbd0ca7d5	-0.034339745
208	0xbd4b7b88	-0.049678355
209	0x3d4daa0a	0.05021099
210	0x3d96880c	0.07350168
211	0x3d3177b3	0.043327045
212	0x3da021ac	0.078189224
213	0x3d80ba1c	0.062854975
214	0x3c95c86a	0.018284041
215	0x3d835476	0.06412594
216	0x3c0dd75b	0.008657302
217	0x3cd979f7	0.026547415
218	0x3d16253d	0.036656607
219	0x3d8a5f16	0.067564175
220	0xb89fe38b	-7.624094e-05
221	0xbbd7f2f9	-0.006590244
222	0x3b6ba467	0.0035956146
223	0xbc867127	-0.016411377
224	0xbc028e01	-0.007968427
225	0xbda74062	-0.08166577
226	0x3c980b8e	0.018560197
227	0x3c9101f9	0.017701136
228	0xbd289d85	-0.041165847
229	0xbd369a9a	-0.044581033
230	0x3d168e2d	0.036756683
231	0x3d4d1374	0.05006738
232	0x3dbdb0d1	0.09262241
233	0xbdb0ab14	-0.086263806
234	0xbccb7eef	-0.0248408
235	0xbce0ee3b	-0.027457347
236	0x3bce7464	0.006300496
237	0x3c1d8d5c	0.009616222
238	0x3d9c3fd8	0.07629365
239	0xbc862301	-0.016374113
240	0xbce669e7	-0.02812667
241	0xbd4c89d0	-0.049936116
242	0x3d02c514	0.03192623
243	0x3d9cc331	0.07654417
244	0x3d8c1e9f	0.06841778
245	0x3d1b45c0	0.037908316
246	0xbc330e8a	-0.010928759
247	0xbd974614	-0.07386413
248	0xbd3e0c52	-0.04639847
249	0x3d4d5d7a	0.050137974
250	0xbbed556b	-0.0072428486
251	0x3d9262f9	0.07147784
252	0x3d0e9e8a	0.034819163
253	0xbd0fb841	-0.035087828
254	0xbcc380dc	-0.023865156
255	0xbbac6f44	-0.0052622873

fc2.bias f4 [64]
0	0x3d5a6d61	0.053326968
1	0x3d32992f	0.04360312
2	0xbd80c586	-0.062876746
3	0xbccb89c7	-0.02484597
4	0xbd73eff4	-0.05955501
5	0xbbdb2140	-0.0066873133
6	0x3caceb82	0.021108393
7	0x3db82e3f	0.08993196
8	0xbd998a20	-0.074970484
9	0xbdab225d	-0.08356164
10	0x3d3ebdf0	0.046567857
11	0x3dbfd720	0.09367204
12	0xbb5d26d6	-0.0033745072
13	0xbcfedb12	-0.03111032
14	0x3ce399c9	0.027783291
15	0x3c9b98ee	0.018993821
16	0x3cd42618	0.02589707
17	0x3b861479	0.004091796
18	0xbd8fea38	-0.070270956
19	0x3cf9a61e	0.030474719
20	0x3db65a58	0.089039505
21	0x3cf058e9	0.02933927
22	0xbda5527e	-0.08072375
23	0x3d80071f	0.06251358
24	0xbbbf5268	-0.005838681
25	0xbd71b870	-0.059013784
26	0x3daf8d6f	0.08571898
27	0x3d020c3b	0.031749945
28	0x3d26486a	0.040596403
29	0x3d0fe9ac	0.035134956
30	0x3d57998e	0.052636676
31	0x3d82c828	0.06385833
32	0xbd84af86	-0.06478791
33	0x3d0ac4f2	0.033879228
34	0x3ca510b9	0.020149576
35	0xbbf199cc	-0.0073730703
36	0xbc80293e	-0.015644666
37	0xbc984bf6	-0.018590908
38	0xbda48772	-0.08033647
39	0x3dc9ab0b	0.09847077
40	0x3d9cc911	0.07655538
41	0xbd3095c8	-0.043111593
42	0x3c5537d9	0.013013803
43	0x3d136a80	0.03599024
44	0xbd5dd91b	-0.054162126
45	0x3d22c306	0.03973677
46	0x3d78dec1	0.06075931
47	0xbd8911b3	-0.06692829
48	0x3da57ac2	0.08080055
49	0x3d7707d2	0.060310192
50	0xbd5dbd48	-0.05413559
51	0xbd54a062	-0.051910765
52	0x3d890b6d	0.066916324
53	0xbccf10b1	-0.025276514
54	0xba060ea1	-0.0005113874
55	0xbcdf15cf	-0.027232079
56	0xbcb3353a	-0.021875966
57	0x3da26403	0.07929232
58	0x3c9e3bec	0.019315682
59	0xbd925f6e	-0.07147108
60	0x3d838391	0.06421579
61	0xbb73f961	-0.0037227499
62	0x3d1a9ff2	0.037750192
63	0x3cf9c9b4	0.030491687

fc3.weight f4 [10, 64]
0	0x3e5a13ef	0.21296667
1	0xbdc72aa3	-0.09724929
2	0x3e077a54	0.13230258
3	0xbd38a9c6	-0.045083784
4	0xbe14394b	-0.1447498
5	0xbe31ec98	-0.1737541
6	0x3e057c09	0.13035597
7	0xbe2b1f24	-0.16711098
8	0x3d655a4c	0.055994317
9	0xbdea0e40	-0.11428499
10	0xbe322487	-0.17396747
11	0xbe89e90a	-0.26935607
12	0x3cffc7c5	0.031223187
13	0xbd7fed6c	-0.062482283
14	0xbd4f1dfb	-0.0505657
15	0xbdf849e4	-0.121234685
16	0xbe8fc59e	-0.28080457
17	0x3dbeb993	0.09312739
18	0xbd804a8d	-0.062642194
19	0xbd953b72	-0.07286729
20	0x3cf02534	0.029314615
21	0x3d9fb6f5	0.07798568
22	0x3e2cd686	0.16878709
23	0xbd666ba8	-0.056255013
24	0xbdd97acc	-0.10619125
25	0x3dd8757a	0.10569282
26	0x3e1cf04d	0.15326042
27	0xbdca710c	-0.09884843
28	0xbde58ab2	-0.11208095
29	0xbd4f4062	-0.05059851
30	0x3d93ec9b	0.07222863
31	0x3e14bc6d	0.14525004
32	0x3c2fc5da	0.010728324
33	0x3df853d3	0.12125363
34	0xbe94b159	-0.29041556
35	0x3e6ae654	0.22939426
36	0xbe87de1e	-0.2653665
37	0xbd50ad6e	-0.050946645
38	0x3aa0926f	0.0012250672
39	0xbd4ceaad	-0.05002849
40	0x3c8133c1	0.015771748
41	0xbad0c207	-0.0015926965
42	0xbd94358a	-0.07236774
43	0x3e3e1975	0.18564399
44	0x3de2a42d	0.1106647
45	0xbdf06cf8	-0.11739534
46	0xbc099b2e	-0.008398814
47	0x3e8be7b4	0.27325213
48	0x3d5ed7c7	0.054405
49	0x3d8057c1	0.06266738
50	0x3e1421a8	0.14465964
51	0xbc8c5ba6	-0.017133545
52	0x3d9110b4	0.07083264
53	0x3d06b854	0.032890633
54	0xbe18ff58	-0.14941156
55	0xbd85cb80	-0.06532955
56	0x3e5e8dee	0.2173383
57	0x3dfd3475	0.12363521
58	0xbdf480ec	-0.119386524
59	0x3dfaf6a7	0.122540765
60	0x3cce2c59	0.025167631
61	0x3dd9c0db	0.106324874
62	0x3d0ad6f2	0.033896394
63	0x3c92a305	0.0179
64	0xbc57f69e	-0.013181357
65	0x3e1eca54	0.1550687
66	0xbd12b4da	-0.035817005
67	0x3d62015d	0.05517708
68	0x3da97787	0.08274751
69	0xbcc690f3	-0.024239039
70	0xbd76af19	-0.06022558
71	0x3e3fd254	0.18732578
72	0xbdb29883	-0.087204956
73	0xbe0b233c	-0.1358766
74	0x3c8f6049	0.017501967
75	0x3e7a3d1a	0.24437371
76	0x3e5bd122	0.21466497
77	0xbb8503fe	-0.004059314
78	0xbdf7c38e	-0.12097846
79	0xbc4c6cc7	-0.012477106
80	0x3d130250	0.035890877
81	0xbdace9b4	-0.08443013
82	0x3db563b9	0.08856911
83	0xbe450569	-0.19240345
84	0x3dc9469a	0.09827919
85	0x3e2bc201	0.16773225
86	0x3e51f9ab	0.20505397
87	0xbda25a2d	-0.07927356
88	0xbd850ed5	-0.064969696
89	0x3dc5d392	0.096594945
90	0xbe546304	-0.20740896
91	0xbe21f05c	-0.15814346
92	0x3db54fad	0.088530876
93	0xbca2ea92	-0.019887242
94	0xbdbb412e	-0.091432914
95	0xbe138087	-0.14404498
96	0xbd853beb	-0.06505569
97	0xbe5fb250	-0.21845365
98	0x3e5bb711	0.21456553
99	0xbdfd5beb	-0.123710476
100	0x3e61b029	0.22039856
101	0xbcabf021	-0.020988526
102	0x3de926da	0.113843635
103	0xbdb93902	-0.090440765
104	0xbcb924e5	-0.0226006
105	0x3d66519b	0.05623017
106	0xbe3dc312	-0.18531445
107	0x3e0d8583	0.13820462
108	0x3d98b72f	0.074568145
109	0x3d37e954	0.044900253
110	0xbe62141d	-0.22077985
111	0xbcd51233	-0.026009655
112	0xbd3e5c24	-0.04647459
113	0x3d75f4ff	0.0600481
114	0xbe1def3a	-0.15423289
115	0x3d2e4b5b	0.042552333
116	0x3c6e91f0	0.014561161
117	0xbdb1f07a	-0.086884454
118	0x3d62748a	0.05528692
119	0xbdce9253	-0.10086503
120	0xbdb6c81e	-0.08924888
121	0xbe362ded	-0.17790957
122	0xbe40fd7d	-0.18846698
123	0xbe259e57	-0.16173683
124	0xbda85706	-0.082197234
125	0xbe8b210c	-0.2717365
126	0x3e3fc480	0.18727303
127	0x3d7a510c	0.06111245
128	0x3e55c8d5	0.20877393
129	0xbe4d3763	-0.2004066
130	0xbdefc19c	-0.1170685
131	0xbd13405e	-0.035950057
132	0x3e021162	0.12701944
133	0xbe046d85	-0.12932403
134	0xbda1e206	-0.07904439
135	0x3d445d10	0.047940314
136	0xbbaf9858	-0.005358737
137	0x3daa00bb	0.083009206
138	0x3c99f496	0.018793385
139	0xbe4036fa	-0.18770972
140	0x3df4d326	0.11954336
141	0xbd3f1954	-0.046655014
142	0xbd936ca3	-0.07198455
143	0xbca0d178	-0.019631132
144	0xbde6c266	-0.11267547
145	0xbcd3f225	-0.0258723
146	0x3d5e4b62	0.05427111
147	0xbe32ac45	-0.17448528
148	0xbe78fdca	-0.24315563
149	0x3dfb5b4a	0.122732714
150	0xbd4be96e	-0.049783163
151	0xbd83b5c3	-0.06431153
152	0x3d8efe3c	0.06982085
153	0x3d9a3010	0.075286984
154	0x3d9bfc2a	0.07616456
155	0xbe62a9d2	-0.22135094
156	0x3dd35b1b	0.10320111
157	0x3c814809	0.01578142
158	0x3df4d5fa	0.11954875
159	0x3e553be0	0.20823622
160	0xbdd7cdd6	-0.10537307
161	0x3e56b98a	0.20969215
162	0x3e2e9200	0.17047882
163	0xbd8e1469	-0.06937487
164	0xbcb9f5c5	-0.0227002
165	0x3e105af2	0.14097193
166	0xbd057e53	-0.032591175
167	0x3e38c964	0.18045574
168	0xbd9c2ef8	-0.07626146
169	0x3dcc7678	0.099835336
170	0xbc5d47bb	-0.013505871
171	0xbcf64bf4	-0.030065514
172	0x3cea31e7	0.028588248
173	0xbdea4e8e	-0.11440764
174	0x3e8e9b9d	0.278531
175	0xbc83a101	-0.016067984
176	0xbc610c4b	-0.013735841
177	0xbe39066a	-0.18068853
178	0xbe0b73a3	-0.1361833
179	0xbbf5aa7a	-0.007497129
180	0x3d7f44ac	0.06232135
181	0x3e401a89	0.18760122
182	0x3de28b50	0.11061728
183	0x3d11aaa5	0.03556313
184	0x3cc9c6c5	0.024630914
185	0xbe0c8efb	-0.13726418
186	0xbe0e5801	-0.13900758
187	0xbdc8c40a	-0.098030165
188	0x3ceeabf3	0.029134726
189	0x3d900c4b	0.07033595
190	0x3eb1beb6	0.34715813
191	0x3d196697	0.037451353
192	0x3e92d23e	0.28676027
193	0x3da3078a	0.07960422
194	0xbde631f0	-0.112399936
195	0x3d6152b2	0.055010505
196	0x3e09e7c5	0.1346732
197	0xbd576403	-0.052585613
198	0xbbd9d290	-0.0066474155
199	0x3daec86e	0.08534323
200	0x3d0dcd4a	0.034619607
201	0x3e73dfe8	0.23815882
202	0xbe035e6e	-0.12828991
203	0xbe0fd25e	-0.14045092
204	0xbd779f32	-0.060454555
205	0x3c70c6ed	0.014695865
206	0x3e88503b	0.2662371
207	0xbd46eff5	-0.048568685
208	0xbd4a2bce	-0.04935818
209	0xbdb77a24	-0.08958843
210	0xbd26cd21	-0.04072297
211	0xbe8a467a	-0.27006894
212	0x3e5a6c8a	0.21330467
213	0xbd8a5f18	-0.06756419
214	0xbd03262d	-0.03201883
215	0x3d2c0e9c	0.04200612
216	0xbc4b6d82	-0.012416245
217	0x3d10afb8	0.03532383
218	0x3e3d915b	0.1851248
219	0x3d7c06c0	0.061529875
220	0x3c8d4046	0.017242562
221	0xbc033363	-0.008007857
222	0xbd902297	-0.070378475
223	0x3d5aa863	0.053383242
224	0x3d78ba93	0.060724806
225	0xbe67973f	-0.2261629
226	0x3d8822fe	0.06647299
227	0xbe667b72	-0.22508028
228	0xbd0b389d	-0.033989538
229	0x3d89f879	0.067368455
230	0xbd0c242e	-0.03421419
231	0x3e2fcfe3	0.17169146
232	0x3cd8067c	0.02637028
233	0xbaf1111d	-0.0018391941
234	0x3e5d6682	0.21621135
235	0xbdbb8dae	-0.09157883
236	0xbd75c3a6	-0.060001038
237	0xbd307bd0	-0.043086827
238	0xbd82eb12	-0.06392492
239	0xbd153a4b	-0.036432546
240	0x3d0078b5	0.031365115
241	0x3d99de5e	0.07513116
242	0xbc5f997c	-0.013647433
243	0x3de94a2a	0.11391099
244	0x3d6d9278	0.05800101
245	0xbe052cb0	-0.13005328
246	0x3e09969d	0.1343636
247	0x3cee19bd	0.029065007
248	0x3e6c3689	0.23067679
249	0xbd726a6c	-0.059183523
250	0x3e688d24	0.22710091
251	0x3d6c5860	0.05770147
252	0x3db11d53	0.08648171
253	0xbe54d789	-0.20785345
254	0xbb8c8417	-0.0042882073
255	0x3d26c271	0.040712778

fc3.bias f4 [10]
0	0x3d13059a	0.035894014
1	0xbae8c44a	-0.0017758694
2	0xbb8e8d93	-0.004350373
3	0xbdce46dc	-0.10072109
4	0xbab0c491	-0.0013486316
5	0xbd64c8d8	-0.055855602
6	0x3de1da96	0.1102802
7	0xbd980d2d	-0.07424388
8	0x3aa75062	0.0012765045
9	0xbd488129	-0.0489513
